model.pth (torch_old, 28421 bytes, 6 tensors)

fc1.weight f4 [64, 37]
000000 2d 26 2f bd f5 5c 53 3d d1 75 c5 bc ed f2 98 3d
       -0.042761017 0.051602323 -0.02410403 0.074682094
000010 e0 68 b5 ba 99 e0 fc bc 28 aa 99 3d 82 cc fd 3d
       -0.0013840459 -0.030868815 0.07503158 0.123925224
000020 b1 40 4c 3e 58 2c 80 3e 2f dd 9d bd fd b2 db bc
       0.19946553 0.25033832 -0.07708203 -0.026818747
000030 d4 eb 8e bd 3a 6a b2 bc 10 fd 05 bb 0e cd a9 3e
       -0.069785744 -0.021779168 -0.0020445026 0.33164257
000040 b2 07 a0 3d 92 ec 78 be 5f e9 ff be de 44 b5 bf
       0.07813968 -0.24308994 -0.49982736 -1.4161642
000050 a4 95 19 3e 3c c5 05 3e dd 6a d7 bc 1a e4 e6 3c
       0.1499849 0.1306352 -0.026296074 0.02818494
000060 f1 82 42 be 99 64 1e 3c a8 7f 74 bc db 01 92 3d
       -0.18995263 0.009667539 -0.014923014 0.0712926
000070 72 8d 0f bd 8c 51 35 3e de e1 19 3b e1 41 bf 3c
       -0.035047002 0.17706889 0.0023480575 0.023346843
000080 3a d6 6a bd 26 82 bb bd f1 1d 92 be 51 2b 0b bd
       -0.05733321 -0.09155683 -0.28538468 -0.033976857
000090 26 35 37 3a 32 3d b9 3d 0e b2 7c bc 2b 16 f4 3d
       0.0006988816 0.09044875 -0.015423311 0.11918291
0000a0 d2 a9 47 3e 36 c5 3e 3d 16 48 d6 3c fb 3a 6a bc
       0.19498375 0.046574794 0.02615742 -0.014296289
0000b0 9e 1f 46 be 4d a0 1e bd 6f 2b c2 bc 4a 6b 1f 3e
       -0.19347998 -0.038727093 -0.023702351 0.15568271
0000c0 6c 34 3e be 39 42 02 3e 1b 84 20 bb 53 d0 6a 3c
       -0.18574685 0.12720574 -0.0024492803 0.014331895
0000d0 ed 85 7d 3d 58 e0 6f 3e 72 5f 97 3d 25 15 29 be
       0.0618953 0.23425424 0.073912516 -0.16511972
0000e0 c1 08 93 be a6 c0 3d 3d 9a 70 dc bd 71 47 81 bd
       -0.28717616 0.046326302 -0.107636645 -0.063124545
0000f0 bc 35 71 be 23 84 30 be a5 3b 88 bd e2 93 95 bd
       -0.23555654 -0.17237906 -0.06652001 -0.07303597
000100 52 c2 38 3e 7f 72 c1 3d 6c 54 df 3d 6e bb 45 bc
       0.18042877 0.094456665 0.10904774 -0.0120686125
000110 c0 24 83 3d 1d 83 17 3e a0 99 87 3e 37 40 d6 3e
       0.06403494 0.1479611 0.26484394 0.41845867
000120 60 64 9a bc 8f 40 1b bc 4e 61 9e 3e 84 7f 31 be
       -0.01884669 -0.009475841 0.30933613 -0.173338
000130 82 b2 ab 3d 3c 2a 8b bc bf 6d 8e 3e 6d 88 da be
       0.08383657 -0.016987912 0.27818105 -0.4268221
000140 11 67 95 be 87 f6 90 3e e5 ad 90 3e 70 79 96 be
       -0.29180196 0.28313085 0.2825767 -0.29389524
000150 f0 d1 51 3d 2d 79 a6 3d e2 7a 81 bd c5 4b 98 be
       0.051225603 0.08128581 -0.06322266 -0.29745308
000160 f1 c2 04 3e 0c 08 8b be 54 7c ce 3d fe e0 a0 bc
       0.12964989 -0.27154577 0.100823075 -0.019638535
000170 f7 64 57 3e b0 ba 35 3c da 52 27 be 15 4b 20 3e
       0.21034609 0.011091873 -0.16340199 0.15653642
000180 01 e2 c4 bd 6a 31 e6 bd 11 75 3d 3c f5 60 96 bd
       -0.09613419 -0.11239894 0.011563555 -0.07342712
000190 ef 72 b5 3e ec 72 68 3d a7 e1 4f be ef 6d 2f be
       0.3543925 0.056750223 -0.20300923 -0.1713178
0001a0 e2 ba d5 be 66 6e 44 be 3b 66 b9 3d dd 4d 04 be
       -0.41744143 -0.19182739 0.09052702 -0.12920327
0001b0 bd 78 e3 bd 52 77 85 3d 15 02 12 b9 1f 86 d9 be
       -0.111070134 0.06516899 -0.0001392442 -0.4248514
0001c0 6d 8e 89 be 93 1d cf 3e a6 4b bd bd f9 e0 93 bf
       -0.26866475 0.4045225 -0.092429444 -1.1553031
0001d0 d1 75 d2 be 16 e7 96 3e 96 50 68 bd 8c f0 1a 3c
       -0.41105512 0.2947318 -0.056717478 0.009456765
0001e0 c3 8c 18 bd 4d 11 c2 3c f8 7a 1c bf 16 52 f5 3c
       -0.037243616 0.02368989 -0.61125135 0.029946368
0001f0 5f 01 06 be 02 23 e6 bd f2 3d 4a be c7 55 60 be
       -0.1308646 -0.11237146 -0.19750193 -0.21907721
000200 b3 5d 0a bc d4 9b be be dd a6 64 bf a7 7c 8c 3e
       -0.008445191 -0.37228262 -0.89317113 0.27438852
000210 9c 28 05 be 24 f7 ca be a8 23 9d be 8c 17 3a be
       -0.13003772 -0.39641678 -0.30691266 -0.18173045
000220 a2 14 8a 3c ac 30 b9 be 64 c3 b2 3d 7e 52 a2 be
       0.016855542 -0.36169946 0.08728674 -0.31703562
000230 67 8e 0e bf a6 f4 34 3e 57 10 f7 bd d0 4b 80 be
       -0.5568604 0.17671451 -0.120636635 -0.2505784
000240 45 00 d4 3d 15 e5 65 be 42 35 15 3e 72 70 f6 bc
       0.10351614 -0.22450669 0.14571097 -0.030082915
000250 24 b3 33 be 15 fa 07 be 3d dc d3 be d2 17 85 be
       -0.17548805 -0.13278992 -0.41378966 -0.25994736
000260 44 b6 e0 3c d0 5a 56 be e9 46 9c be bf b4 00 3d
       0.027430661 -0.2093308 -0.3052285 0.031422373
000270 88 9b c8 be 03 80 46 bf 1f 4c c2 be 38 2f af be
       -0.3918116 -0.7753908 -0.379487 -0.34215713
000280 aa 06 31 3e 67 90 b2 be e0 8a 02 c0 09 d1 fd bd
       0.17287698 -0.34875795 -2.0397263 -0.12393386
000290 5c 40 f2 bd 2c ae a2 be 04 f0 19 bf f1 4a 4f bd
       -0.11828682 -0.31773508 -0.6013186 -0.05060858
0002a0 85 ae d8 be 34 93 1d be 31 7a 5e 3e a8 89 89 be
       -0.42320648 -0.15388185 0.217263 -0.26862836
0002b0 0f 11 0d c0 c7 9d 85 be 4a 5a 0a be c0 7b 11 3d
       -2.2041662 -0.26096937 -0.13511005 0.035518408
0002c0 30 dc 12 bf 8d db ad bd e1 41 26 bf ce ea b7 be
       -0.5736723 -0.084891416 -0.64944273 -0.3592133
0002d0 5c 1f e4 3d 5f a8 a8 be 8f 19 f3 bf c0 96 bb bd
       0.11138794 -0.32940957 -1.8992175 -0.09159613
0002e0 fc 9c 59 3c 65 ca 85 bd 30 b3 55 bd 2b 3c f6 3d
       0.013282057 -0.06532744 -0.05217284 0.12023195
0002f0 a3 86 14 bd 99 2c 48 3d 8e 52 b7 3e 2c 37 c9 be
       -0.036261212 0.048870657 0.35805172 -0.39299905
000300 cf a0 17 be 45 3f e0 be a3 3d 1d c0 6f 13 ce bb
       -0.14807437 -0.4379827 -2.456887 -0.0062889378
000310 a6 b6 bd bc cf 41 8b bc 52 7f b3 bc 78 b2 fa bb
       -0.023158383 -0.016999153 -0.021911297 -0.0076506697
000320 73 7c 02 3c 9a 2e 7a 3d fe 05 90 bd 1d 16 8b 3d
       0.007964241 0.0610796 -0.07032393 0.06791327
000330 78 8c ef bb 4f f9 6c 3d 4a 41 91 bc 3b b3 53 3e
       -0.0073104464 0.057854947 -0.017731328 0.2067384
000340 f1 ad e0 3d bc 33 51 3e b9 88 e5 bd 6c 56 47 3d
       0.10970677 0.20429891 -0.112077184 0.048666403
000350 ee 33 d7 3d 7b 24 7b bc 56 04 7e 3d 1a 3a 95 bd
       0.10507952 -0.015328522 0.062015854 -0.072864726
000360 5d 03 9a 3d 0a c2 66 3c ea 40 a2 3d 48 58 6c 3e
       0.07520173 0.014084348 0.079225376 0.23080552
000370 ff bc db 3c 9e 29 c0 bb 57 8b 2d 3e 72 31 1b bf
       0.026823519 -0.005864336 0.16947685 -0.6062232
000380 20 b3 12 be 3e 64 2e be 54 98 5d bf f7 86 5f bd
       -0.14326143 -0.17030427 -0.8656056 -0.054572072
000390 f0 03 8c be 85 44 84 3d db 3c 34 bf 89 01 03 3e
       -0.27346754 0.064583816 -0.7040536 0.12793554
0003a0 9e 1c a9 bd b5 3a 00 3e 0d 38 23 3e 49 18 b0 be
       -0.082574114 0.12522395 0.1593935 -0.34393528
0003b0 0a 74 37 bd 08 34 f7 be 65 0d fb 3d 03 84 e5 bd
       -0.044788398 -0.48281884 0.12258414 -0.1120682
0003c0 7b 5b ee be 64 b7 82 3e db 3e 1f 3c 1d 65 a0 bd
       -0.4655417 0.2553054 0.009719576 -0.07831786
0003d0 a5 00 39 bc d7 e9 27 bf 16 fc 38 3d da 1c b5 be
       -0.011291658 -0.65591186 0.045162283 -0.35373574
0003e0 e3 c5 7f 3a 3d 62 55 bd 08 d1 61 be a0 53 11 bd
       0.00097569654 -0.05209564 -0.22052395 -0.03548014
0003f0 43 46 e8 bd 1e 63 05 3e 5f 0d 60 be 90 75 29 be
       -0.11341526 0.13026091 -0.218801 -0.16548753

fc1.bias f4 [64]
000000 6a be 27 3e 89 2a d8 bc 60 50 3d be 5c 8f 16 bd
       0.16381231 -0.02638747 -0.18487692 -0.036757812
000010 dd 06 c6 3d 4d 20 4e 3b 9a eb 27 be 76 7c 43 3c
       0.09669278 0.0031452358 -0.16398469 0.011931529
000020 d8 17 47 bd 57 4d 84 be 92 27 fc 3d 5c 6e 6c 3e
       -0.048606724 -0.25840256 0.12312235 0.23088974
000030 61 a3 60 3d aa e9 d2 3d 95 11 2f 3c 65 21 e2 bd
       0.05484331 0.10298474 0.010685344 -0.11041526
000040 3e 1c f3 bd f0 87 98 bb 59 e6 bc bd 62 d4 50 be
       -0.11870621 -0.004654877 -0.09223623 -0.20393518
000050 b9 19 b1 3c 9b 55 11 bc 0b 8e 62 3d 41 71 31 bd
       0.02161871 -0.008870508 0.055311244 -0.043320898
000060 16 80 6e be 2a 41 24 3e 5f 47 a8 bd b8 ee 73 be
       -0.23291048 0.16040483 -0.08216738 -0.23821533
000070 e2 c8 33 3e 45 d3 8f bd ee 5d a6 bd 94 1c 46 be
       0.175571 -0.07022718 -0.081233844 -0.19346839
000080 8e 5b 09 3e 7f 5d a6 3b b0 0e 3a be 34 a5 0c 3e
       0.13413832 0.0050770636 -0.18169665 0.13734895
000090 5f 0a 0e be 41 55 e6 bc f6 71 9b bc e0 80 15 be
       -0.13871144 -0.028116824 -0.01897524 -0.14599943
0000a0 d2 13 b8 bd 7c 0e fd 3c 32 93 f7 bd 8b 48 2a 3e
       -0.089881554 0.030890696 -0.12088622 0.16629235
0000b0 4f 9c ba bd 76 d1 4c be cc 6e ae bc 7e 0d ae bd
       -0.09111845 -0.20001778 -0.021293066 -0.08498667
0000c0 b5 df 3b be a5 fd 13 3e 1d 80 e9 bd 02 0c a9 bc
       -0.18347056 0.14452226 -0.11401389 -0.020635609
0000d0 06 ca 93 bc 9a ff 96 bd cd 9a f6 bd e8 79 05 bd
       -0.018040668 -0.07372971 -0.12041245 -0.032586962
0000e0 a9 23 f5 3d 2b b5 07 be 47 de 8d bc e1 db ef bd
       0.11969692 -0.13252704 -0.017317904 -0.117118604
0000f0 dc 9b 9c bd b7 ae dd 3d f8 26 dc bc a1 3d 22 ba
       -0.07646915 0.1082434 -0.02687405 -0.0006188993

fc2.weight f4 [64, 64]
000000 c4 53 10 be c5 e6 46 bc 6b 95 32 bd ca d0 b7 3d
       -0.14094454 -0.012139981 -0.043599527 0.0897537
000010 3d 6c d7 3e 11 6b dd bd cb 2f 62 3c 88 1d a4 bc
       0.42074767 -0.10811437 0.01380534 -0.020033613
000020 2c a7 6b bd 4e d0 3c 3d 49 04 cc bc b8 10 9e bd
       -0.057532474 0.046097092 -0.024904387 -0.077180326
000030 12 d4 1d bd d2 17 0f bd 67 d6 5a bd e7 0e 2f be
       -0.038532324 -0.034934826 -0.053427126 -0.17095529
000040 d5 db 16 3d 7b 1b 4e 3e 63 d0 1e 3e 7c cd 55 3e
       0.036830742 0.2012767 0.1550918 0.20879167
000050 24 1d a5 3d af fb 58 3d 1a 1b 89 bc 8a 02 41 be
       0.08062199 0.0529744 -0.016736556 -0.18848625
000060 56 90 c8 3d 7a 84 ac be 4d c0 cc bd 19 41 c3 bc
       0.09793155 -0.33694822 -0.09997616 -0.023834752
000070 5d 0a 51 3d 62 c9 28 bd 58 38 4f 3d 9d ed fe be
       0.051035274 -0.04120768 0.050590843 -0.4979066
000080 b9 11 cd 3d b2 95 ff bd 69 f1 76 be 9e 46 88 be
       0.10013146 -0.12479724 -0.24115528 -0.26616377
000090 7d 68 36 be db 3c 33 be 4c b8 80 3c e2 0e 3f 3e
       -0.17813297 -0.17503683 0.01571288 0.18658021
0000a0 b7 88 86 bc 5d 36 84 3c 3c 18 aa 3d 20 b8 36 be
       -0.016422613 0.016139204 0.083054036 -0.17843676
0000b0 15 59 0b 3e e2 43 fe 3d f2 e9 6a bd a0 a2 19 3f
       0.13608201 0.12415291 -0.057352014 0.6001377
0000c0 26 68 ef bd 18 9c 4f be 44 6b 17 be df 90 ca 3d
       -0.116897866 -0.20274389 -0.14787012 0.09890913
0000d0 cc d8 94 bd ba 03 f9 bc 5e ed 05 3d 52 44 5b be
       -0.07267913 -0.030397285 0.032697074 -0.21412781
0000e0 dc 61 29 bf ee 5f 02 bf 4f e0 b7 be f2 b7 e2 3c
       -0.66164947 -0.5092763 -0.3591332 0.027675603
0000f0 35 6a 85 be 7c 74 65 bd 45 4d a2 3d 27 29 2b bd
       -0.26057592 -0.05601929 0.07924894 -0.041787293
000100 1e f6 9a bd f5 8a c9 3d e6 c3 4e 3e 4e b6 7d bd
       -0.075664744 0.09840957 0.20191917 -0.061941437
000110 5b 6c ad 3c a5 e0 37 3e 3c ef 0b 3e f2 a1 77 3d
       0.021169832 0.17956789 0.1366548 0.060457177
000120 9e bc 53 be da ec 96 bc ba aa b0 bd 98 d5 89 3e
       -0.2067742 -0.018423487 -0.086263135 0.26920772
000130 09 80 b5 3c 4b 70 8d 3e fb c7 a8 bd 68 c3 eb bd
       0.022155778 0.27624735 -0.08241268 -0.1151188
000140 f2 53 d6 bd 3a 55 ca be 8d fd 09 be 05 ce 5d 3d
       -0.1046523 -0.39518148 -0.13475628 0.054151554
000150 1a 12 4f 3e 1f 93 a1 3d df 2c 5a 3c 89 43 15 3e
       0.20221749 0.07889389 0.013316362 0.14576544
000160 01 bf 0b bc e4 20 a1 bd fa 2a 21 bc 83 ab 73 3d
       -0.008529426 -0.078676015 -0.009836907 0.05948974
000170 58 fc 7e 3d 73 9d 43 3d 52 fd 66 3d 20 ce c5 be
       0.062252373 0.047757577 0.05639393 -0.38633823
000180 00 ea 08 be e4 e6 12 3e 5e f0 8f bd aa 5c 80 bd
       -0.13370514 0.1434589 -0.07028268 -0.06267674
000190 54 69 3b 3e aa b1 10 3e 59 75 ed bc a2 a3 18 be
       0.18301898 0.14130273 -0.02898662 -0.14906171
0001a0 8a 0f 3d be 7a 1c e1 bd 4c 12 0d be 3a 14 fe bd
       -0.18462959 -0.109917596 -0.13776511 -0.12406202
0001b0 f5 38 bc 3c 33 77 13 3c a3 b5 a5 bd fa 66 2e be
       0.022976378 0.009000587 -0.08091285 -0.1703147
0001c0 78 1d 34 3e e1 d0 0f be 4e 16 91 bc 8f f4 45 bb
       0.17589366 -0.14044525 -0.017710831 -0.0030205583
0001d0 a3 63 29 be 02 75 b9 3c f8 33 13 be 7d cb 9a bc
       -0.16541915 0.022638801 -0.14375293 -0.018895859
0001e0 ca 08 14 bd 17 8a 72 bd 62 b8 64 3e c4 63 a5 3d
       -0.036141194 -0.059213724 0.22335961 0.080756694
0001f0 b6 61 13 be 69 a1 4d 3e d9 20 0a be 89 dc bd bd
       -0.14392743 0.20081104 -0.13489093 -0.09270579
000200 fc af 6f 3d 55 4a af bd 2e 23 b2 3d 53 d0 ba 3e
       0.05851744 -0.085590996 0.08698116 0.36487064
000210 c2 65 67 3d 08 f7 9b be fc f0 e7 bd 8b ae 9b 3d
       0.05649353 -0.30461907 -0.11325261 0.07601651
000220 a8 8e 6c 3e f1 4e 5e bd e4 78 d7 3d 83 15 b7 bc
       0.23101294 -0.054274503 0.10521105 -0.022349125
000230 ca 46 d4 bd 65 b5 79 bd 72 41 8d 3d 5b 3d 8a bd
       -0.103650644 -0.060964007 0.06897248 -0.06749984
000240 db cb af bd d0 19 09 be 1b 93 d3 3c e8 ae a5 bc
       -0.08583804 -0.13388753 0.025826981 -0.020225003
000250 47 92 ba be 51 c8 4a 3d be 05 a7 bd a7 17 67 bc
       -0.36439726 0.049507443 -0.08155392 -0.01410476
000260 b1 f1 d0 be 1c 59 0a 3f fa 54 0e 3d f9 1d 49 3d
       -0.40809396 0.5404222 0.03474901 0.04910085
000270 2b 83 c3 3c a4 f2 7d 3d cb dc 95 bd 21 4b 56 bd
       0.023866257 0.06199898 -0.073175035 -0.052317742
000280 44 37 25 be 15 b7 26 be 6c 7e 2c be de c3 52 3e
       -0.16134363 -0.16280778 -0.16845101 0.2058253
000290 28 f8 87 3d d2 27 40 bd 64 72 1c 3d 46 be 5e 3d
       0.06639129 -0.046912976 0.03819503 0.054380678
0002a0 b7 df 17 3f 59 a3 04 3d b9 30 aa 3b d5 b6 87 bb
       0.59325737 0.032382343 0.0051937965 -0.0041416683
0002b0 87 69 d7 bc d0 2d b6 3c e7 64 d0 3c 30 e4 a2 3e
       -0.026295437 0.022238642 0.025438739 0.31814718
0002c0 18 b6 cf 3d 57 6f a4 bd 32 c1 11 be f0 c7 93 bd
       0.101421535 -0.08029049 -0.14233854 -0.072158694
0002d0 d3 38 01 be 27 1d da 3d 15 68 38 be d0 47 1b bd
       -0.12619333 0.106500916 -0.18008454 -0.037910283
0002e0 a5 97 9e be 88 3f 81 be e0 62 4d be 6d a3 d9 bd
       -0.3097507 -0.25243783 -0.20057249 -0.10626874
0002f0 90 a6 05 3d 03 ca 09 be 5c 14 3d 3e a6 ed 50 3e
       0.03262955 -0.13455968 0.18464798 0.20403156
000300 e1 71 36 3d d0 63 6b be a0 10 8c bd f1 5b 01 bd
       0.044542197 -0.22987294 -0.068391085 -0.031581823
000310 b4 23 63 bd 4e d9 25 3e 85 88 a6 3e 95 4d 9d be
       -0.05545397 0.16196176 0.3252603 -0.30723253
000320 18 1b 79 bd 8d be 0d 3e b6 dc cb 3d 6f 63 aa be
       -0.060816854 0.1384222 0.09954207 -0.33278987
000330 15 a6 89 3e 96 ad 03 be 96 d9 a9 bd 98 12 8f be
       0.26884523 -0.12859187 -0.08293454 -0.27943873
000340 81 f4 fa bd 25 d9 b3 be cb 3a dd bd 43 2f 89 be
       -0.12253667 -0.35126606 -0.108022295 -0.2679387
000350 20 95 84 be 38 9b 13 3e c8 76 a5 bd 4e 9a 5c 3e
       -0.25895023 0.1441468 -0.08079296 0.21543238
000360 d3 60 d5 3c e6 2b c0 3e 4b a4 04 bd cf ee 8c 3d
       0.026047146 0.37533492 -0.032383244 0.068814866
000370 4c 49 06 be 60 90 d9 3d 28 d3 d2 3d b5 d7 17 be
       -0.13113898 0.106232405 0.10294181 -0.1482838
000380 f7 1a a0 be 1c ef 98 be 06 ed ce bd 1f e3 26 bd
       -0.31270573 -0.29869926 -0.101038024 -0.040743943
000390 a3 47 9f be 26 a1 6a be 7d 55 5b 3b 70 84 72 bb
       -0.31109342 -0.22913036 0.0033467703 -0.0037005208
0003a0 04 99 36 bd fb c7 90 3e 1b 25 bf be 81 dd 2d bd
       -0.04457952 0.28277573 -0.37332997 -0.04244757
0003b0 de bf 12 bf 27 ea 16 be a2 63 45 3e 9f df 90 3e
       -0.57324016 -0.1473776 0.19276288 0.2829561
0003c0 51 c8 5f 3e 23 e0 1d 3e c3 42 18 be 23 e7 07 bf
       0.21853758 0.15417533 -0.14869218 -0.5308706
0003d0 f0 ad 3f be 0a 68 c4 be 0d 98 4b be b9 ef 17 3d
       -0.18718696 -0.38360626 -0.19882222 0.03709385
0003e0 32 aa 09 bd 55 f6 b1 be 2c 14 ec be 33 41 b1 bd
       -0.033609577 -0.3475825 -0.4610914 -0.08655014
0003f0 62 08 2f be 15 55 01 3e 8a d8 e6 bd dc ea 25 3e
       -0.17093042 0.12630112 -0.1127177 0.16202873

fc2.bias f4 [64]
000000 b2 ef 28 3e 58 8e e3 3d fc ef 25 3e e6 9f 93 bd
       0.16497687 0.11111134 0.16204828 -0.072082326
000010 80 1f 56 3e 85 41 9f be 30 d3 92 be 9d e6 89 bd
       0.20910454 -0.31104675 -0.28676748 -0.06733439
000020 76 ba d4 3d 71 15 33 3f 88 55 09 3d d6 3d cc 3e
       0.10387127 0.6995459 0.033528835 0.39890927
000030 a2 cd cf 3e 9d 65 39 3d 7b 7c b8 bd 70 1b a7 3d
       0.40586573 0.04526292 -0.09008118 0.0815953
000040 69 ed b1 3d a8 6b 36 be 82 01 7d be 3a 5d b3 3e
       0.086878605 -0.17814505 -0.24707606 0.35032064
000050 d7 90 bb 3d b3 fd 22 3f 7c f1 14 be 1e 4c a4 bd
       0.091584854 0.63668364 -0.14545244 -0.08022331
000060 25 4e ca 3d 78 59 9b 3a 1a fb b4 bc bf a4 02 be
       0.09878186 0.0011852225 -0.02209239 -0.12758158
000070 fc c4 eb bd 67 c8 cd 3e 3c 17 b8 3c 42 d9 66 3c
       -0.11512181 0.40191957 0.022472017 0.014089884
000080 ff 13 a5 bd 9a 76 89 3d 2b 06 d4 3d a4 ac 2d be
       -0.080604546 0.067120746 0.10352739 -0.16960388
000090 0e 23 0e be 70 d2 b0 bd 95 04 ed 3e a6 91 42 3d
       -0.1388056 -0.08633888 0.46292558 0.047502182
0000a0 0c 24 68 be 84 0b 3c 3f ae 38 d4 3e b3 d4 0f be
       -0.22670001 0.7345507 0.41449493 -0.14045982
0000b0 44 1f 0f 3d cb 49 b8 bd 4d 6f 0e 3f db b4 16 be
       0.034941927 -0.0899845 0.5563858 -0.14717428
0000c0 79 07 f7 3d 7f 86 1b be af 17 39 be 9b 1f 1e 3f
       0.12061972 -0.15188025 -0.18075441 0.61766976
0000d0 7d 4e 95 3d ac bd 47 be 7f c2 89 3e d1 75 72 be
       0.07290361 -0.19505948 0.269062 -0.23677756
0000e0 4a 47 28 be 58 4f 08 be ed bb 49 bd 82 26 4f be
       -0.16433445 -0.13311517 -0.049251486 -0.20229533
0000f0 aa f7 56 bd 27 e3 c7 3e c3 e6 4a 3d 2c 36 84 bc
       -0.052482285 0.3904049 0.049536478 -0.016139112

fc3.weight f4 [4, 64]
000000 80 dc 96 3d e0 14 02 3e 9e cb ac 3e d1 83 95 be
       0.07366276 0.12703276 0.33749098 -0.2920213
000010 de 38 58 3e fe 28 3e be 62 9e 1b be 3c 92 0d be
       0.21115443 -0.18570325 -0.15197137 -0.13825315
000020 a1 71 63 3e 2e 22 62 3e 2d d0 37 3e c2 9c 8e 3e
       0.22211315 0.22083351 0.17950507 0.27853972
000030 29 ac 5a 3e 89 92 fe 3d 2c 81 36 be cc 9a ca 3e
       0.21354736 0.12430293 -0.17822713 0.39571226
000040 6c 9d 95 3e ae 63 18 be c4 c0 93 be 91 f2 3a 3e
       0.29221666 -0.14881775 -0.28858006 0.18256594
000050 7c 08 78 3e 4e cd 97 3e 1c a6 f9 be 97 93 c9 bc
       0.24221987 0.29648823 -0.48759544 -0.02460651
000060 0f f2 a7 3e d1 bb 17 3e f5 42 3f be 66 dc 0b bf
       0.32801864 0.1481774 -0.18677886 -0.54633176
000070 ef 3a 20 be a2 39 81 3e 60 d4 d3 bd ff 6d 16 3e
       -0.15647481 0.25239283 -0.10343242 0.14690398
000080 38 a1 35 be 72 5a 62 3e 60 bc fb 3c d4 1d 9c 3e
       -0.17737281 0.22104815 0.030729473 0.30491507
000090 15 8c 5e be 9f 7b 88 3e 4c de 2b 3e 62 e2 b9 3e
       -0.21733125 0.26656815 0.16784018 0.3630553
0000a0 3c 94 12 be 86 e4 60 3e 56 1e 72 3e c6 b7 80 3a
       -0.1431436 0.21962175 0.23644385 0.0009820394
0000b0 18 9c f1 3e 05 83 b9 3c 7e 07 5e 3e 82 24 3f bd
       0.47189403 0.022645483 0.21682546 -0.046665676
0000c0 5d 06 ab 3e 2b 9b 47 be a3 67 4f be b1 3c 9d 3e
       0.33403292 -0.19492786 -0.20254378 0.30710366
0000d0 bf e2 6d 3e 14 3f 3c be b8 dc 36 3e ab 5a 57 be
       0.23231028 -0.18383437 0.17857635 -0.21030681
0000e0 04 b4 f2 be 0e 16 cd 3d ae 96 64 3e 4c 5d bb bd
       -0.47402966 0.10013972 0.22323105 -0.09148654
0000f0 e6 60 99 be 68 44 8f 3e 85 0d 44 3e 5d 15 36 3e
       -0.2995674 0.27981877 0.19145782 0.17781587
000100 6e 3d 83 3e 03 31 70 3d 12 05 73 3e 40 e8 55 be
       0.25632805 0.05864049 0.23732403 -0.20889378
000110 78 35 3e 3e 4b 60 78 be e9 d8 4e be 02 8c 11 be
       0.18575084 -0.24255483 -0.20199932 -0.14213565
000120 05 b2 6a 3e bb 13 47 3e 66 13 05 3f 86 d2 4b 3e
       0.22919472 0.1944112 0.51982725 0.19904527
000130 ce 97 74 3e 84 e6 a4 3d cb 04 1c be 96 89 00 3f
       0.23886034 0.0805178 -0.15236203 0.5020994
000140 af bc 94 3e b8 59 fb bd d1 b3 07 be 72 1e 99 3d
       0.29050204 -0.12272972 -0.13252188 0.0747651
000150 08 b8 7c 3e 7c 66 84 3e da a9 35 be ca ba d2 bc
       0.24679577 0.2585944 -0.17740574 -0.025723834
000160 e2 82 48 3e c3 0e da 3c 53 9b 4c 3c 00 12 23 3e
       0.19581178 0.026618367 0.012488204 0.15924835
000170 9f dd 49 3e 2b b9 90 3e 67 e7 bb 3e 1e eb 65 3e
       0.19713448 0.28266272 0.36699983 0.22452971
000180 84 59 25 be 7f 04 11 3e 54 88 dc 3d 88 2e 00 3f
       -0.16147429 0.14161871 0.1076819 0.50071
000190 44 10 55 be bc c2 7d 3e ea 6b 46 3e 19 13 cd 3e
       -0.20806986 0.24781317 0.19377103 0.40053633
0001a0 a9 80 20 be 01 d3 78 3e 39 74 62 3e d1 11 41 3e
       -0.1567408 0.24299242 0.22114648 0.18854453
0001b0 04 5c c9 3e 49 87 96 3d a6 d5 62 3e ce cc 81 be
       0.39328015 0.07350022 0.22151813 -0.25351566
0001c0 1f 13 77 3e 0b e4 8f 3e 07 41 90 bd de eb 84 3e
       0.24128388 0.2810367 -0.07043653 0.25961202
0001d0 cf 07 4e 3e c6 d2 dc bd e8 11 84 3e 5c 33 1f be
       0.20120166 -0.10782389 0.2579491 -0.15546936
0001e0 42 d2 ab bd c6 9d 9d bd a7 cc 2b 3e ef 15 10 be
       -0.08389713 -0.076961085 0.16777287 -0.14070867
0001f0 39 40 a9 be 9e ca 91 3e 91 04 9a 3d 6c 0a 82 3e
       -0.3305681 0.28474897 0.07520402 0.25398576
000200 84 78 14 3e 99 fd 04 3e 3d 43 a2 3e 8f 8e 1b be
       0.14499098 0.12987365 0.31691924 -0.151911
000210 54 34 63 3e 00 7f 71 be 5f 42 7c be 68 6c 18 3d
       0.2218793 -0.23583603 -0.24634694 0.03721276
000220 bc d9 43 3d 38 a0 47 3e 05 20 c7 be 6f 24 7d 3e
       0.04781507 0.19494712 -0.38891616 0.2472093
000230 59 82 a2 3e b5 2d f1 3d 54 56 88 be de 4d 0e 3f
       0.31740072 0.11776296 -0.26628363 0.55587566
000240 03 8d fd 3c bd 93 d4 be d1 11 f7 bd 69 6d 54 3d
       0.030951029 -0.41518965 -0.12063945 0.051862154
000250 1e ca a7 3c 10 07 9e 3e e7 bb d5 be aa 1f 85 3e
       0.02048212 0.30864763 -0.4174492 0.2600072
000260 bc a6 00 3e d1 41 76 3e 80 0e ac 3d 85 68 4b 3e
       0.12563604 0.24048544 0.08401203 0.1986409
000270 ce ba b0 be 62 5b 2f 3e 1d 14 e9 be 4e 75 37 3d
       -0.3451752 0.17124704 -0.45523158 0.044789605
000280 ff ca 27 bf 23 f1 c0 3e 42 3d 69 3e 9d 55 38 3f
       -0.6554412 0.37683973 0.22777274 0.72005635
000290 9f 7b e1 be 93 72 6f 3e f3 7e 7e 3e 74 db bb 3e
       -0.44039628 0.2338355 0.24853115 0.36690867
0002a0 fb b7 26 be 0b c8 87 3e 02 60 ab 3e dc 27 22 3e
       -0.1628112 0.26519808 0.33471686 0.15835518
0002b0 e9 46 7a 3e 59 81 3c 3e fb 5a 58 3e df e0 00 bd
       0.24441113 0.18408717 0.21128456 -0.031464454
0002c0 02 af c8 3e 38 b2 55 3e 0c 1a c1 be ed cd b8 3e
       0.3919602 0.20868766 -0.37715185 0.3609461
0002d0 a2 92 84 bd 5f 8c 1a 3d 79 82 65 3e f4 0c f9 3b
       -0.064732805 0.037731525 0.22413053 0.007600421
0002e0 b2 e8 08 bf 7f b9 f7 3e 49 a0 df 3e 16 04 8d be
       -0.53480065 0.4838371 0.43676975 -0.2754218
0002f0 17 c9 46 be 77 a8 71 3e a1 c0 09 bf fd e5 18 3e
       -0.19412647 0.2359942 -0.53809553 0.14931484
000300 43 6f 4a 3e b0 c5 33 3e 70 ec 5e 3e da 26 c1 be
       0.19769005 0.1755588 0.21769881 -0.37724954
000310 b1 7a 82 3d 3b 0e 95 be de 69 53 be 08 95 81 bc
       0.06371058 -0.2911242 -0.20645854 -0.015818134
000320 de 45 70 3e 60 af 8a 3e 3e ff 1f 3f 39 9f 6a 3e
       0.23464152 0.27086926 0.62498844 0.22912301
000330 75 a6 8e 3e 0a bc 8a 3e 4d a9 49 bd cf fa aa 3e
       0.27861372 0.27096587 -0.049233723 0.33394477
000340 8d 82 d4 3e d9 9f 87 bd 45 2c 91 be 7b 93 1c 3e
       0.41505852 -0.066222854 -0.28354087 0.15290634
000350 83 40 f1 3d 75 22 ae 3e 3e de de be 6f b4 3c 3e
       0.11779883 0.34010664 -0.43528932 0.18428205
000360 bf 16 5f 3e df ea bf be 23 95 14 3c a8 f2 ca bc
       0.2178602 -0.3748388 0.00906876 -0.02477391
000370 34 f4 6e 3e 22 d9 20 3e 30 5c a3 bd 5f b2 19 3e
       0.23335344 0.1570783 -0.07976568 0.1500945
000380 3f c8 20 bf c1 b3 f8 3e df e5 60 3d 04 b8 03 be
       -0.6280555 0.4857464 0.054906722 -0.12863165
000390 df ac b9 be 6f 47 b9 3e bc 31 87 3e bd 77 a0 3e
       -0.36264703 0.36187312 0.26405132 0.31341353
0003a0 e0 47 0c bf 6a e2 8d 3e 78 2c 98 3e 49 23 b3 be
       -0.5479717 0.27711803 0.29721427 -0.34987858
0003b0 c7 6a b1 3e 69 ea 47 be 00 4f 38 3e 42 f7 f0 3e
       0.34651777 -0.19523014 0.17998886 0.47063643
0003c0 d7 53 e7 3d 9d 29 cc 3d 81 79 3a 3e b1 73 89 3e
       0.11295288 0.099688746 0.18210413 0.26846078
0003d0 c2 f3 98 bd 21 67 9f be 59 ef 44 3e 78 96 47 3e
       -0.07468368 -0.3113337 0.19231929 0.19490993
0003e0 b3 52 54 be 68 65 b8 be 49 ff 0b 3b 25 07 88 be
       -0.20734672 -0.36014867 0.0021361879 -0.2656795
0003f0 4a c1 1c bf ad 68 26 3e 51 a5 4a be 33 22 63 3e
       -0.61232436 0.16250868 -0.19789626 0.22181015

fc3.bias f4 [4]
000000 33 5d e8 3e 83 e2 db 3e ed 57 a8 3e 59 88 b2 3e
       0.45383605 0.42946252 0.32879582 0.3486965
