checkpoints/model.pth (torch_old, 28363 bytes, 6 tensors)

fc1.weight f4 [64, 37]
000000 1e 7b 2d bc 76 87 88 3d 0d ef 1d be 73 fd 74 bd
       -0.010588435 0.06666462 -0.15423222 -0.05981202
000010 6c ac 5f 3d 41 4c 3a 3c 1f b2 f2 bd 01 7f ca 3d
       0.054607794 0.011370719 -0.1185038 0.09887505
000020 76 8c 25 3e a4 81 1a 3e be f9 1f be 5d 78 b6 bd
       0.16166863 0.15088516 -0.15622613 -0.08909676
000030 e6 b6 a2 3c b8 aa 07 be e5 79 d9 bc c4 a9 21 3e
       0.019862603 -0.13248718 -0.026547382 0.15787417
000040 94 2b 5b be 03 b7 39 bd ac 93 34 be d6 8d 36 bf
       -0.21403342 -0.04534055 -0.17634457 -0.71310174
000050 7d 84 2f 3d 83 e6 2e 3e 3e 23 2b be ba d8 20 3e
       0.04285096 0.1708012 -0.16712663 0.15707675
000060 f5 ce 3b be 3f 52 0a be b9 de 9a 3e 90 18 68 3d
       -0.18340667 -0.13507937 0.3024805 0.05666405
000070 20 ff 00 bf 2a 2f 37 3e c9 96 4b bd 8f 9f 1e 3e
       -0.5038929 0.17889085 -0.049704347 0.15490554
000080 ea e6 1b be a1 4d 06 be 63 c2 15 be fc b9 ac bd
       -0.15224805 -0.1311555 -0.14624934 -0.08433911
000090 28 e2 38 3a b2 73 26 3e 57 13 53 3d 19 80 cc 3c
       0.0007052743 0.16255072 0.051532116 0.024963425
0000a0 67 56 17 3e ac 1d b9 bd b3 34 23 3d 7a f4 05 be
       0.14779054 -0.090388626 0.03984518 -0.13081542
0000b0 62 c1 d2 bd c6 ca 02 be 7e 06 0b bd 49 97 21 3e
       -0.10290791 -0.12772664 -0.03394174 0.15780367
0000c0 2a 3f f2 bd e8 27 95 bc 5b cf d6 3c 69 86 fd 3a
       -0.11828454 -0.018207505 0.026221922 0.0019342426
0000d0 06 75 db 3d 5c 6b da bd 7e bf 1e 3e 87 ec 53 bd
       0.1071568 -0.106650084 0.15502736 -0.051739242
0000e0 5e 13 ad 3c 8c 5f 74 bd b1 4b 0c be 17 a5 94 bd
       0.021127399 -0.059661433 -0.13700749 -0.07258051
0000f0 b5 c7 13 bd cd c8 91 3d 3f e0 70 3c 29 32 de 3d
       -0.036079127 0.07118378 0.014701902 0.10849411
000100 0c 9e 94 bc b5 3d e9 bc b2 c2 42 bd 2e 12 af 3d
       -0.018141769 -0.028471807 -0.047548957 0.085483894
000110 42 34 93 3d 1e a5 b9 3d 55 20 98 3d e9 25 e5 3d
       0.07187702 0.09064697 0.07428042 0.111888714
000120 df ad f9 3c 74 7c 77 3d c9 60 25 3d 6c 57 98 3d
       0.030478416 0.060421422 0.040375505 0.074385494
000130 50 4a 32 3e 13 1a c6 be 52 c5 73 3e 1d 66 4f be
       0.1741116 -0.38691768 0.2380574 -0.20253797
000140 f9 aa 86 be 76 c4 36 3e ad f5 75 3e cf e3 1c be
       -0.26302317 0.17848381 0.24019499 -0.15321277
000150 d6 a5 b5 3d 07 a1 27 3c f0 50 6d bd 62 2f b4 be
       0.08869521 0.010231263 -0.057938516 -0.351924
000160 02 19 ef 3d 2e 45 06 bf db 85 8b 3d 19 b7 bc 3d
       0.11674692 -0.5244931 0.0681264 0.092146106
000170 2b 58 3c 3e 44 7d 65 bd 3d b2 42 be 0d 03 9f be
       0.18393008 -0.056027666 -0.19013305 -0.31057015
000180 89 f2 88 3d a6 ef 11 3e 17 86 b8 bd 47 36 31 be
       0.06686885 0.14251575 -0.090099506 -0.17305861
000190 e2 15 1f 3e 28 3c c0 3d 9a 4f 8b 3b 9c 87 3e 3d
       0.15535691 0.09386474 0.0042514326 0.046516046
0001a0 97 e8 80 be d5 a4 27 3c af 3c 5f bd 41 e3 ab be
       -0.25177452 0.01023217 -0.05450123 -0.33571818
0001b0 62 1f f2 3d 7e e9 84 3d 13 3f 63 bd 2a ad 0a 3e
       0.11822392 0.064898476 -0.055480074 0.1354262
0001c0 bc fb 17 3c 69 7f 98 3d 8f f0 c5 bd 43 a0 a3 be
       0.009276327 0.074461766 -0.096650235 -0.31958207
0001d0 78 7d 32 be 8a 2e 60 bd 48 cf 1c 3e 83 a5 b5 bc
       -0.17430675 -0.054731883 0.15313447 -0.022173649
0001e0 fe 72 42 be 2e 1a 05 be a4 bb 27 bf c9 b5 f4 3d
       -0.18989179 -0.12998268 -0.6552069 0.11948735
0001f0 84 e3 49 bd a7 a5 c1 be ba b3 a3 be a6 59 f7 3c
       -0.04928924 -0.37821695 -0.31973058 0.030194115
000200 d1 3a e2 bd 7e 2f f0 bc 3a 96 d8 3d 52 1a 26 3e
       -0.110463746 -0.029319521 0.105755284 0.16220978
000210 80 c5 e8 be 2a 84 3a 3c 8f d7 ad bc c1 34 f3 be
       -0.4546318 0.011384049 -0.02122095 -0.47501186
000220 1b 82 81 3d cc 63 bf be eb c3 c5 3d 83 ef cd 3d
       0.06323644 -0.37380826 0.09656509 0.10055449
000230 9c 86 aa 3d bb 45 0d 3e 2b 7f b3 be 99 23 e5 3d
       0.08326456 0.13796131 -0.3505796 0.1118843
000240 8e a5 f6 be 05 70 91 be b6 6e 11 3e f7 69 ee 3c
       -0.48173183 -0.28405777 0.14202389 0.029103262
000250 9e 95 07 be f3 dd 00 be 49 ec 9b be 39 e2 57 be
       -0.13240668 -0.12584667 -0.3045371 -0.21082391
000260 a9 46 fa be 4e 66 01 be 8b 49 45 be aa fc 5d bb
       -0.48882034 -0.12636682 -0.19266336 -0.0033872523
000270 b3 fa bf be 4a 71 89 bf cf f7 84 be b5 e5 85 be
       -0.37495956 -1.0737698 -0.25970313 -0.26151815
000280 a2 fb f7 3d 38 de 1c bf 15 bf 00 bf 22 12 27 bf
       0.12108542 -0.6127658 -0.5029157 -0.65262043
000290 d4 d6 6c be 39 c0 83 3d ba 34 26 be 09 0c ed be
       -0.23128825 0.06433148 -0.16231051 -0.46298245
0002a0 a0 08 f1 be 39 46 0c bd d1 71 a6 3d b1 ad 1e be
       -0.47076893 -0.034246657 0.081271775 -0.15495946
0002b0 95 4c ae be 85 c8 03 be b6 dc a4 be 40 f6 36 3e
       -0.34042802 -0.12869461 -0.3219964 0.17867374
0002c0 ed bc b3 be 8f f2 d9 be e6 fd 5a be 91 e7 bd be
       -0.35105076 -0.4256787 -0.21385917 -0.37090734
0002d0 4e 67 9a 3c 50 43 8b bc a0 1c 87 be 40 69 37 3d
       0.018848088 -0.01699987 -0.26389027 0.04477811
0002e0 9b a8 ee 3c c6 ca da bd 34 15 12 bd b4 22 a5 bd
       0.029133132 -0.10683207 -0.035664752 -0.0806326
0002f0 4e 17 08 3e e4 24 07 3e f2 99 4e 3d 0a 40 a8 3e
       0.1329014 0.13197666 0.050439782 0.32861358
000300 f1 81 12 be 34 fb 52 bd e8 b2 08 bf 76 79 ba 3d
       -0.14307381 -0.051509097 -0.5339799 0.09105198
000310 34 d6 ba be 98 32 89 bd b2 51 b3 3d c3 24 65 be
       -0.3649155 -0.06699103 0.087558165 -0.22377305
000320 e0 ed f1 bd f9 bf 01 3e b3 16 7b bd 53 9c d6 3c
       -0.11812949 0.12670888 -0.061300945 0.026197588
000330 7a b7 c1 3c 65 6e 45 bc 2c cd 85 3d 90 05 c3 3d
       0.023647059 -0.012050246 0.06533274 0.09522545
000340 dc f3 11 3e c0 1b 89 3e 39 c1 b7 3d 66 46 8f be
       0.14253181 0.26778984 0.08972401 -0.27983397
000350 7c 89 ba 3c 52 94 9b bd 04 64 d1 be c2 27 0a 3e
       0.022770636 -0.07596649 -0.40896618 0.13491729
000360 5e f2 10 bc 91 a4 e9 be 5e d0 fe bd 47 77 00 bf
       -0.008846847 -0.45633367 -0.12442087 -0.50182
000370 76 e6 a2 3d 1e ed f1 3b 78 0b a4 3d 18 70 75 be
       0.07954113 0.007383003 0.0801 -0.23968542
000380 8e 0e 14 bd 9c d8 2d be c1 e9 11 bf 2b 77 a1 3d
       -0.036146693 -0.16977161 -0.56997305 0.078840576
000390 bf fc 09 bf e9 79 17 3d ca 67 04 be 55 26 52 3e
       -0.53901285 0.036981497 -0.12930217 0.20522435
0003a0 fd 29 5a 3e 54 e6 23 be 57 26 d2 bd c6 72 7c bd
       0.2130508 -0.16005832 -0.10261219 -0.061632894
0003b0 49 f2 3e 3e 7d ea d9 be 78 ad 09 3d bf 1d ac bd
       0.18647112 -0.42561713 0.0336127 -0.08404111
0003c0 8e 57 41 3d cf a9 37 3e 6a 1a 39 3d c3 12 27 be
       0.04720264 0.1793587 0.045191206 -0.16315751
0003d0 2a ce 06 3d a1 ab e5 be 26 cc a9 bd 22 7d 73 be
       0.032911457 -0.44857505 -0.08290891 -0.23778203
0003e0 29 0e 9f 3c 58 62 b7 be f3 32 d3 bb 9d 84 b9 3d
       0.019415932 -0.35817218 -0.0064452826 0.09058497
0003f0 d4 70 cd 3d 15 e3 a0 3c b2 f1 ec be d5 06 62 be
       0.10031286 0.019639531 -0.4627815 -0.22072919

fc1.bias f4 [64]
000000 9e 34 d4 3d 2a c2 27 bd 25 cc 3d be 61 d3 87 bd
       0.103615984 -0.040956654 -0.18534906 -0.06632114
000010 f7 cc d7 3d 5c d8 34 bd 2c b8 f2 bd 68 24 d4 3d
       0.10537141 -0.04415165 -0.11851534 0.103585064
000020 9f 26 28 3d 40 ed 79 be f0 b1 e2 3d 87 31 64 3e
       0.041052457 -0.2440691 0.11069095 0.22284518
000030 73 7d 34 3d d0 7b 87 3c c7 cc 7a bd 12 e9 16 be
       0.04406495 0.01653853 -0.061230447 -0.14737347
000040 19 c8 10 bc bf 40 82 bc 90 6f 10 bd 2d 10 74 be
       -0.0088367695 -0.015900014 -0.035262644 -0.23834296
000050 a1 c2 a6 3d af 04 83 3d c6 b8 95 3d 45 22 b0 bd
       0.08142591 0.06397378 0.07310633 -0.086002864
000060 80 d9 18 be 4a 8f 1e 3e 21 2e 21 bd 62 c5 7f be
       -0.1492672 0.15484348 -0.039350633 -0.2497764
000070 a6 0c 3c 3e 12 e2 1f ba 57 3e db bc bb a3 62 be
       0.183642 -0.0006099056 -0.026763124 -0.2213277
000080 67 d4 1c 3e 27 5b 6c bd ed ef 16 be a3 90 4d 3c
       0.153154 -0.057704117 -0.14739962 0.012546691
000090 eb b1 9f bd 48 a5 1c 3d f0 59 04 bd 80 62 02 be
       -0.07797607 0.038243562 -0.032312334 -0.12732887
0000a0 7c 96 18 be 67 42 c8 bd b3 d0 16 bd 5d 88 43 3e
       -0.14901155 -0.0977829 -0.036820125 0.19094987
0000b0 22 d0 27 bd b0 e3 05 be 63 69 cc bb 8f a6 bf bd
       -0.040969975 -0.13075137 -0.006238149 -0.093579404
0000c0 60 26 d4 bd b2 ea 10 3e 8c b0 b0 bd 36 cc 9b 3d
       -0.10358882 0.14152029 -0.08627424 0.076073095
0000d0 7a 0b 88 bd 9e d0 92 bd 1d 0e 24 be 0b 26 26 bd
       -0.06642814 -0.07168697 -0.16021009 -0.040563624
0000e0 a1 f1 04 3e c0 6f ec bd b3 0e b2 bd d8 93 04 be
       0.12982799 -0.11544752 -0.0869421 -0.12947023
0000f0 1a 31 1c bd 73 10 5e 3d c2 9d 5c 3d d2 ac 44 bd
       -0.038132764 0.054214906 0.053861387 -0.048016377

fc2.weight f4 [64, 64]
000000 7f 26 3f be 18 4e 43 3c 80 d4 ee 3d 78 33 66 3e
       -0.18667029 0.0119204745 0.11661625 0.22480571
000010 b6 10 49 3e 44 dc 9d bd f5 c2 19 3e 67 f6 53 be
       0.19635281 -0.07708028 0.15015776 -0.20699464
000020 3d a3 b8 bd 2e 81 07 bc b4 1e 58 3d 5d c6 ad bc
       -0.0901551 -0.008270545 0.052763656 -0.021212751
000030 35 08 76 3d 0b d4 82 bc 17 0d 38 3e 26 17 19 be
       0.06006642 -0.01597025 0.17973743 -0.14950237
000040 1a 62 33 bd cb 2f c6 3d 52 7f a2 3d 3c e9 62 be
       -0.04379473 0.096770845 0.07934441 -0.22159284
000050 06 42 7c be dc 7e c4 bd 2e a3 38 3d c6 e5 ca 3d
       -0.24634561 -0.09594509 0.045077495 0.09907107
000060 6f 10 a4 be 8b 6a 8a be fb a7 a0 bd 09 27 17 3d
       -0.32043788 -0.2703441 -0.0784454 0.03690246
000070 54 90 85 be 12 0c 9c 3e bd d1 41 bc 26 77 1e bc
       -0.26086676 0.3047796 -0.011829791 -0.009671962
000080 33 23 4c 3e 08 40 1a 3e d1 ae 4d bd 52 ad 84 3d
       0.19935302 0.15063488 -0.050215546 0.06478371
000090 ed 1e 3e bd ad 0b 5f bd f0 64 a3 3c db 68 d6 bc
       -0.046416212 -0.054454494 0.019945592 -0.026173046
0000a0 e0 a2 d3 bd f5 e4 22 bd 91 2f 17 bd e4 76 31 be
       -0.103338 -0.03976913 -0.036910597 -0.1733051
0000b0 9d d7 df 3d 93 d4 66 3d 86 17 59 be f7 42 99 bd
       0.10929797 0.05635507 -0.2120038 -0.07483476
0000c0 29 12 c1 bb 42 b7 0c 3f e6 69 da bd b3 b0 20 be
       -0.0058920574 0.5496713 -0.1066473 -0.15692405
0000d0 e1 9a 8b bd 43 ba 3b be 91 1e fe 3d 07 be 60 3c
       -0.0681665 -0.18332772 0.12408174 0.013717181
0000e0 02 17 2e be 27 3e 09 be 14 aa a1 be fe b4 a6 bd
       -0.17000964 -0.13402615 -0.31575072 -0.0813999
0000f0 00 6f 06 3e 1d 24 34 be 8b 7b 65 bb 1f cb ea 3c
       0.1312828 -0.17591901 -0.0035016264 0.028661309
000100 86 96 4a 3c 25 ff d8 bc ef 8b b7 bc 4d fe 43 3e
       0.012364989 -0.02648885 -0.022405593 0.19139977
000110 ff fa 85 3e ab 0c 55 3d 1b 8a b6 3d c2 b0 16 3e
       0.26168057 0.052014034 0.0891306 0.14715865
000120 c7 38 75 3e fc 94 d3 bd 0f 86 04 be ba 01 42 3e
       0.2394744 -0.10331151 -0.12941764 0.18945971
000130 97 09 16 3d cd 5a 0f 3d 14 e6 db 3d d1 da 02 3d
       0.03663024 0.034998704 0.10737243 0.03194696
000140 ba 64 1a 3e e1 b4 45 be be 72 3f bd c6 1e 34 bd
       0.15077487 -0.19307281 -0.046740286 -0.04397466
000150 90 e8 21 3e 85 89 08 be 54 b3 f3 3d 56 65 3b bd
       0.15811372 -0.1333371 0.118994385 -0.04575094
000160 5d d2 30 3d 13 cb 28 3e 96 c5 cf bd 07 97 88 bd
       0.043169368 0.16483717 -0.101451084 -0.06669431
000170 9b f3 0f 3e b3 d6 77 bd 70 bf b3 3d f9 fd 15 be
       0.14057772 -0.060507488 0.08776748 -0.14647664
000180 64 8b 54 bd b9 f0 f6 3d 7b a1 d5 bd 40 0e ab 3d
       -0.051890746 0.12057633 -0.104311906 0.08352327
000190 00 f9 13 bd 85 c0 10 3d 19 3d 72 3c a6 87 40 be
       -0.036126137 0.03533985 0.014785075 -0.18801746
0001a0 7b 8b 08 be 62 7f 6d 3c 67 ec 55 3d 91 78 be bd
       -0.13334458 0.014495702 0.052227404 -0.0930034
0001b0 db 7b 93 bd 11 06 51 bc f1 58 74 be 12 87 88 bd
       -0.07201358 -0.012757794 -0.23862053 -0.066663876
0001c0 b8 58 3e be ad ad 04 be 1a 5e 10 3d 99 24 c6 3d
       -0.18588531 -0.12956877 0.035245992 0.09674949
0001d0 03 7c 0e be fd f7 4e 3e 2d b4 c3 bd 6b 2f 49 39
       -0.13914494 0.20211788 -0.0955585 0.00019186518
0001e0 db c1 33 3d c1 7c 18 be 57 84 27 3e b0 99 9e 3d
       0.043886047 -0.1489134 0.16359077 0.07744157
0001f0 66 d0 5a be 28 b5 59 3d 1d 3f 8c 3c 3c 32 30 3c
       -0.2136856 0.05315128 0.017119939 0.010754164
000200 52 38 8f bd 0a b1 1b be f0 30 36 3e df 8f 8b 3d
       -0.06993164 -0.15204254 0.17792106 0.068145506
000210 00 95 b7 be 0b ef 07 be 7c b7 0a bd 1a c8 03 3f
       -0.35855865 -0.13274781 -0.03386639 0.51477206
000220 26 60 ee 3d 51 34 a8 bd 76 cb 74 bb 14 7c ce 3d
       0.116394326 -0.082131036 -0.0037352717 0.1008226
000230 c2 d4 93 bc 89 08 a5 3d 83 39 dc bd b4 c4 47 bd
       -0.018045787 0.080582686 -0.10753157 -0.048771575
000240 2a 26 5f 3d 26 07 69 3d a7 be 88 3d ff 1d f0 3c
       0.054479755 0.056891583 0.06676989 0.029311178
000250 a5 11 14 be ef 12 28 be eb b5 a2 bd 0c cc bc bd
       -0.14459856 -0.16413473 -0.07944854 -0.09218606
000260 d9 bd d5 bd 62 27 95 3d a0 e3 ee 3d ae 9b d7 bc
       -0.10436601 0.07282902 0.1166451 -0.026319351
000270 4e 8f 15 3d 44 0f 89 3d ab 37 da 3d ff 9f 91 3d
       0.03651362 0.06692365 0.10655149 0.07110595
000280 63 64 82 be 2f 11 8d 3c d4 d1 2e be 12 3c 4c 3e
       -0.25467214 0.017220108 -0.1707223 0.1994479
000290 74 8b 65 3d 79 24 41 3d 49 51 52 bc 24 55 09 3e
       0.056041196 0.047153924 -0.012836763 0.13411385
0002a0 3b 43 31 3e e5 85 ad be fa a6 44 bd 06 61 fc bd
       0.17310803 -0.33891216 -0.048010804 -0.12323193
0002b0 e8 f0 23 3e 49 24 ae 3d 34 ff c3 bc 9b c0 50 be
       0.16009867 0.085030146 -0.023925401 -0.20385973
0002c0 9d 70 24 bd f1 df f3 3d 8a bc dd bd 10 39 2b bd
       -0.04014646 0.11907948 -0.108269766 -0.041802466
0002d0 71 70 16 bf 5d 11 89 bd d4 53 1e be 45 1c 9d be
       -0.5876532 -0.06692765 -0.15461665 -0.3068563
0002e0 95 59 83 bb ee 98 51 be 71 61 97 bd f1 b6 96 3d
       -0.0040084817 -0.20468494 -0.07391632 0.07359112
0002f0 20 24 c3 bd 04 c3 c1 3d 43 13 37 3c a8 39 3c 3d
       -0.09528375 0.094610244 0.011174026 0.045953423
000300 b2 ba c9 bb 6c c3 bc be 8a 7d 8c be 84 64 58 be
       -0.006156289 -0.36867845 -0.2743953 -0.21132094
000310 29 9c 0b bd a9 29 9c be 20 5b 0b be f9 ff 14 3e
       -0.034084473 -0.30500534 -0.1360898 0.14550771
000320 14 6c ab be 28 a3 5d 3e a8 33 2b be d7 f7 c9 3c
       -0.33480895 0.2164427 -0.16718924 0.024654312
000330 cc c5 89 3d 35 44 bd bd c4 10 6d 3e 0c ff c9 bd
       0.0672718 -0.09241525 0.23150927 -0.098630995
000340 8a 9a a7 bd 15 f7 50 be 07 be 01 be ed a7 04 be
       -0.08183773 -0.20406754 -0.12670146 -0.12954684
000350 0f bc f3 3d 5a 3e 1b 3e bc c0 cb 3d 2a a0 2b 3e
       0.11901104 0.15160504 0.099488705 0.16760316
000360 47 2b 97 bd 8a 33 16 3e 05 a6 9d bc 6c e7 e1 b9
       -0.073813014 0.14668098 -0.019244203 -0.00043087767
000370 f1 3c 9c bc c5 40 0b 3e e4 5e 41 3e 5c fb 13 bd
       -0.019072028 0.13598926 0.18883854 -0.036128387
000380 89 ee 96 bd bd 18 b7 be 0d 12 a0 3d 2b 2c c8 bd
       -0.07369716 -0.3576106 0.07815943 -0.09774049
000390 5a fb 80 be f6 69 c3 bc ca 07 01 bd 36 5c c5 3c
       -0.25191766 -0.023854237 -0.03150157 0.024091821
0003a0 b9 88 18 be a2 ac 55 3d 7b 2e 46 3e f4 44 a3 bd
       -0.14895906 0.05216659 0.19353668 -0.07972136
0003b0 e1 0e 86 be 00 6c e0 bd 35 67 92 3d 04 c4 1a 3c
       -0.26183227 -0.10958099 0.071485914 0.009446148
0003c0 71 a3 25 be 24 17 f4 bd c4 81 b5 be 15 2d ec 3c
       -0.16175629 -0.11918476 -0.35450566 0.02883009
0003d0 0a 74 8f be e8 4b b6 bd 16 a8 98 be 90 65 5e 3e
       -0.28018218 -0.08901197 -0.2981574 0.2171843
0003e0 15 f2 af bd 61 3b ea be db 01 e8 bd d3 7f 81 bd
       -0.08591095 -0.45748428 -0.11328479 -0.06323209
0003f0 7f 3f 63 be 47 47 af 3c 33 38 e8 bd c8 7c 84 be
       -0.2219219 0.021396292 -0.11338844 -0.2587645

fc2.bias f4 [64]
000000 8d 6d fb bc 0f fd 30 3d 3e 79 18 3e 3b 13 74 3d
       -0.030691886 0.043210085 0.1489 0.059588652
000010 67 09 53 3e 11 a0 5f be 27 c7 25 be 59 98 ee bc
       0.20609055 -0.21838404 -0.16189252 -0.02912538
000020 95 cd 2f 3e 98 d3 df 3e a0 45 56 bd 92 59 44 3e
       0.17168267 0.4371612 -0.052312493 0.19174793
000030 f9 f7 ba 3e fd 57 87 bc 33 3c d2 bd 1c 6f 1f 3d
       0.36517313 -0.016521448 -0.10265388 0.03892432
000040 fa 5d 0d bd 5e 4e bf bd 24 73 a5 bd 1e cc f3 3d
       -0.03451345 -0.09341119 -0.08078602 0.11904167
000050 c4 78 7f 3d 36 be da 3e 3a e6 a1 bd ad 0b ae bd
       0.06237103 0.42723244 -0.0790524 -0.08498321
000060 52 da 54 3c f1 bd bf bd 6d 5e f2 3b a6 8f ec bd
       0.012991505 -0.093624 0.0073965103 -0.11550836
000070 50 bf 12 3b 25 6e 57 3e 42 54 0a 3d b7 d7 b0 bd
       0.0022391863 0.2103811 0.03377176 -0.08634894
000080 13 34 70 bd 84 e5 50 3d 9e 68 c4 3d 25 d8 a3 bd
       -0.05864341 0.051000133 0.09590267 -0.08000211
000090 4a b8 9a bd 53 da 01 3c 43 12 84 3e 8e 3b 88 bb
       -0.075546816 0.007925588 0.25795183 -0.00415749
0000a0 1d 14 a5 bd 23 7f f8 3e b2 a9 39 3e 60 62 43 bd
       -0.08060477 0.48534498 0.1813114 -0.04770124
0000b0 c9 e1 74 bc 40 c1 3a be 4d 53 98 3e 18 c2 59 bd
       -0.0149464095 -0.18237782 0.29751053 -0.053163618
0000c0 ed ee 3c 3e b3 77 05 be c7 27 e6 bd 0e 55 a9 3e
       0.18450518 -0.13033943 -0.11238056 0.33072704
0000d0 a2 ed 93 bd 37 ef 97 bd 42 0d 46 bd 0d 81 d2 bd
       -0.07223059 -0.074186735 -0.048352487 -0.10278521
0000e0 9b e3 6f be 69 69 d2 bd 29 c8 8f 3c 4b 70 51 bc
       -0.23426668 -0.10274012 0.017551498 -0.01278312
0000f0 92 c2 12 3d 87 1f 68 3e dd b4 11 3d 5b 85 2a 3d
       0.035830088 0.22668277 0.035572875 0.041631084

fc3.weight f4 [4, 64]
000000 45 2a 7f 3e 82 57 9f 3d c2 ee b9 38 5d 2f 10 3d
       0.24918468 0.07780363 8.8659595e-05 0.03520142
000010 f1 bc 8b 3e c5 65 86 be a5 5d a6 bd 30 4e 64 be
       0.27292588 -0.2624952 -0.0812333 -0.22295451
000020 0a e8 38 3e e4 42 18 3e b5 8e 6c 3d 18 2c 83 3e
       0.18057266 0.14869267 0.057753284 0.25619578
000030 14 eb 04 3e 26 7e f4 3d ef 37 be bc 3f 74 6e 3d
       0.129803 0.119381234 -0.02322003 0.05821633
000040 6c 49 be 3e 3d 9b 9d 3d f2 29 22 be ab b1 82 3e
       0.3716539 0.07695625 -0.15836313 0.25526175
000050 83 61 a3 3e b8 a0 7f 3e d6 d4 b3 be e8 c8 23 bd
       0.31910333 0.24963653 -0.35123318 -0.03998652
000060 98 7c a3 3e ad 76 29 be 63 ff 72 be 65 b5 61 be
       0.31930995 -0.16549177 -0.23730235 -0.22041853
000070 c5 13 df 3d 0a e5 df 3d 18 a3 b9 3d 43 28 41 3c
       0.108924426 0.109323576 0.09064311 0.011789384
000080 fb 96 e3 be cd 78 50 3e b2 a7 d2 3c 30 29 47 bd
       -0.44451126 0.20358582 0.025714729 -0.048623264
000090 70 66 f6 3c 64 e1 fb 3d 39 d4 dc 3d 4d 29 a8 3e
       0.030078143 0.12298849 0.10782666 0.3284401
0000a0 cd e7 48 bd 28 f1 0b 3e 52 ed c6 3d 12 2f c1 3d
       -0.049049187 0.13666213 0.09713234 0.09432806
0000b0 c7 41 86 3e f3 23 cd 3b f0 76 32 3e 2a a7 20 bd
       0.2622206 0.006260389 0.17428184 -0.03922192
0000c0 e0 8e 8f 3e 86 b1 e6 3d 65 a4 06 3c 9f 24 87 3e
       0.28038692 0.11264329 0.008217906 0.26395127
0000d0 76 4d dd 3d 91 5e c8 bc 4a 7a 4e bc 1c a3 83 3e
       0.1080579 -0.024459155 -0.012602398 0.2571038
0000e0 fd bb 4b be d7 a5 81 bd 81 59 83 3e 6f fc 35 3e
       -0.1989593 -0.063304596 0.25654224 0.17772077
0000f0 52 9a 13 bd 97 79 99 3e b8 2d ed 3d 5d 6d b7 3e
       -0.036035843 0.29975578 0.11580986 0.35825625
000100 da 22 28 3e 69 15 07 3d 31 96 ef 3d 96 8b fd 3d
       0.16419545 0.032979403 0.116985686 0.123801395
000110 34 28 6e 3e fd eb 8f be be 18 92 bd 74 a5 eb bd
       0.23257524 -0.28109732 -0.071336254 -0.11506167
000120 47 5d 48 3e 02 90 06 3e 83 49 bc 3e 2f c8 3f 3e
       0.19566832 0.13140872 0.36774835 0.18728708
000130 a5 38 88 3d 6e 0e 5c 3e 60 de a5 bc d5 f3 a8 3d
       0.06651429 0.2148988 -0.020247638 0.08249632
000140 37 17 a8 3e a7 a5 54 3d b9 5b a4 bc 99 49 e4 3d
       0.32830212 0.05191579 -0.020063268 0.1114685
000150 f2 01 7c 3e ed 99 86 3e 53 d7 22 be 8f 8c 29 3e
       0.24610117 0.2628931 -0.15902452 0.16557525
000160 e0 51 a2 3e a1 c0 25 3d 88 26 d1 3d f3 22 3a be
       0.3170309 0.04046691 0.102124274 -0.18177395
000170 17 a9 2a 3e 30 30 11 3e f2 5a 47 3e b5 c9 7f 3d
       0.16666065 0.14178538 0.19468287 0.062448222
000180 78 a6 34 be bc 1d 3d 3e f6 a4 14 3e 22 1c 16 be
       -0.17641628 0.18468374 0.14516053 -0.1465917
000190 39 1a 55 3e 5f 91 ab 3d 65 8b 17 3e 6e 75 2a 3e
       0.20810784 0.08377337 0.14799269 0.16646358
0001a0 92 23 2c 3e 3e ac 25 3e 93 4f 18 3e fa 1b 61 3e
       0.16810444 0.16178986 0.14874105 0.21983328
0001b0 7e d9 54 3e cd 0b 0b be e6 7d 11 3e a4 93 8b bc
       0.20786092 -0.1357872 0.14208183 -0.017038174
0001c0 65 2f 95 3e 3d 36 a9 3e 39 fa 80 be c2 5d 78 3e
       0.29137722 0.33049193 -0.25190905 0.24254516
0001d0 bc 37 4e 3e 32 a9 79 3c 67 d5 37 3e b0 a1 a3 3e
       0.20138448 0.015238093 0.179525 0.31959295
0001e0 4b 6b 78 be 4d 9a 2c be ca 5c 9e 3e b9 ab f4 3d
       -0.24259679 -0.16855736 0.30930167 0.11946816
0001f0 02 26 08 be 5e ee 1a 3e 03 46 88 be a6 8e 99 3e
       -0.13295749 0.15129992 -0.26615915 0.29991645
000200 07 33 17 be e0 ad f7 3d 0d b0 3e 3e eb ae a2 3e
       -0.14765559 0.12093711 0.18621846 0.31774077
000210 80 70 6f 3e 29 df ec be 6c 51 6a 3d d5 27 46 3d
       0.23382759 -0.46264008 0.057206556 0.04837783
000220 5f bd cf 3d 15 f9 4a 3e 47 6f 8e be 14 68 60 3e
       0.101435415 0.1982158 -0.27819273 0.21914703
000230 ea 0e 54 3e 2e 5a aa 3d 66 5c 98 bd e5 df 3e 3e
       0.20708814 0.08317982 -0.074394986 0.18640096
000240 f7 df 13 3e 3b 4b 5e be 39 f5 b9 bc ef dd 4e 3e
       0.14440905 -0.21708386 -0.02269994 0.20201848
000250 20 1d c7 3d 9d cb 9b 3e 2f c8 9b be 72 10 23 3e
       0.09722352 0.30428782 -0.30426165 0.15924242
000260 b7 bf 30 3e 2b b9 f1 bd e8 7e 1c be 26 99 86 be
       0.17260633 -0.11802896 -0.15282786 -0.26288718
000270 b7 31 09 3f 5d 9b 47 3e 9f 9c e5 3e 32 f1 2c be
       0.53591484 0.1949286 0.44846055 -0.16888884
000280 ac a3 98 be 2a 06 67 3e 1c d3 c0 3d e8 57 53 3e
       -0.29812372 0.22560945 0.09415266 0.20639002
000290 c5 9e 3b be d9 25 a8 bd 29 0e 14 3e 55 f9 25 3e
       -0.18322285 -0.08210344 0.14458527 0.16208394
0002a0 2f ae e8 3d 8e 04 38 3e fd 7a f6 3d d5 fe 9c 3e
       0.11361348 0.17970487 0.12035177 0.3066317
0002b0 98 99 bb 3e db 4c 87 be ba f0 fb 3d 71 8c 55 3e
       0.3664062 -0.26425824 0.12301774 0.20854355
0002c0 34 7d ec 3e 74 5d 3e 3e 98 21 97 be 0b c8 c8 3e
       0.46189272 0.18590337 -0.29517817 0.3921512
0002d0 81 3a 8c 3e fc 9a 66 3e 23 b1 aa 3e 5a 26 e3 3d
       0.27388385 0.2252006 0.3333827 0.11091299
0002e0 f3 d8 4d be cb 4c 9c be 46 61 a6 3e 31 d7 d4 bd
       -0.20102291 -0.30527338 0.3249609 -0.10392607
0002f0 04 05 2e be 31 84 ac 3d 71 a0 3c 3e 14 60 06 3d
       -0.16994101 0.08423651 0.18420579 0.03280647
000300 0d 2b 21 3e 09 e2 23 3e 59 9b c6 3d d6 a7 9c be
       0.15739079 0.16004194 0.09697599 -0.305968
000310 3d 78 71 bc fa 6a 96 bd 9a c6 9c be 2a d3 6d bd
       -0.01473814 -0.07344623 -0.3062027 -0.05806271
000320 ab a6 5a 3e f5 c7 2b 3e 73 12 00 3f 8b 77 55 3e
       0.21352641 0.16775496 0.5002815 0.20846383
000330 36 3d 4c 3e 97 27 96 3e 00 8a 03 3d f2 20 8f be
       0.19945225 0.2932708 0.03211403 -0.27954823
000340 fb 38 0f 3f 8e 5d 3b 3e 9b 0e 84 3e b1 44 66 3e
       0.5594632 0.18297407 0.25792393 0.22487141
000350 93 be 1f bd 2e 2f 9c 3e 66 21 b8 be f2 13 01 3c
       -0.039000105 0.30504745 -0.3596298 0.0078782905
000360 3c 93 39 3e fa 1b 66 be c9 d2 22 3e e4 33 8c bd
       0.18122572 -0.2247161 0.1590072 -0.06845835
000370 5a 4c 59 3e 10 7c 32 3d bb 15 4b 3e 06 17 90 bc
       0.21220532 0.043575346 0.19832508 -0.017589103
000380 fa d8 d9 be ba d4 b9 3e 35 62 53 3c f3 f7 de bd
       -0.42548352 0.3629511 0.012901832 -0.10887136
000390 16 b7 c5 bd d6 a5 92 3e 20 9a 12 3e 49 e2 a3 3e
       -0.096540615 0.28642148 0.14316607 0.3200858
0003a0 36 32 53 be d4 11 66 3e d7 93 88 3e cd e4 86 be
       -0.20624623 0.22467738 0.26675293 -0.26346436
0003b0 20 80 37 3e 17 b1 5b bd 85 c9 16 3e 0f 2e 29 3f
       0.1791997 -0.053635683 0.14725311 0.66085905
0003c0 63 df 2f 3e 61 68 d8 be 3a e0 52 be df b6 85 3e
       0.17175059 -0.42267135 -0.20593348 0.26116082
0003d0 c8 96 01 be 5c 32 6a be 23 9b d9 3e 7a c7 3b 3e
       -0.12655175 -0.22870773 0.42501172 0.18337813
0003e0 01 fb 98 be 0b 52 0c bf 79 bd 91 3e 35 a1 79 bc
       -0.29879 -0.5481269 0.2846487 -0.015236189
0003f0 9b 54 12 bf d2 7e 90 3d 53 57 e9 be 2a f1 8c 3e
       -0.5716035 0.07055439 -0.45574436 0.27527744

fc3.bias f4 [4]
000000 4a 3d 9c 3e 6b d0 95 3e a2 78 25 3e 3f 77 2b 3e
       0.3051551 0.29260573 0.16159299 0.16744708
